checkpoint_actor.pth (torch_old, 203014 bytes, 6 tensors)

fc1.weight f4 [512, 33]
0	0x3d7a5233	0.061113548
1	0x3e74876e	0.23879787
2	0x3da22a55	0.079182304
3	0xbe1a4a7a	-0.15067473
4	0x3dc5c213	0.09656157
5	0xbe24d164	-0.16095501
6	0x3d6c9bcd	0.05776577
7	0xbe7264b5	-0.23671229
8	0x3d2aea51	0.041727368
9	0x3d79f17b	0.06102131
10	0x3d8b2a19	0.06795139
11	0x3dfe4717	0.12415903
12	0x3df05b3b	0.11736151
13	0x3cd0e4ca	0.02549972
14	0xbe10f2eb	-0.14155166
15	0x3e57578d	0.21029492
16	0xbe18914f	-0.14899181
17	0xbc6f1147	-0.014591522
18	0x3e985b95	0.29757372
19	0x3d0f041a	0.03491602
20	0xbd741a90	-0.059595644
21	0xbd50f8c0	-0.051018476
22	0x3e5b3d40	0.21410084
23	0xbd3e6ae2	-0.04648865
24	0xbe5cb575	-0.21553595
25	0x3e683b3d	0.22678848
26	0x3e3dce60	0.18535757
27	0x3eff3959	0.4984844
28	0xbe61103d	-0.2197885
29	0x3cb2ddce	0.02183428
30	0xbed62dd3	-0.41831836
31	0x3c90abb8	0.017660007
32	0x3f8e7a92	1.1131155
33	0x3eaaa91a	0.3333214
34	0x3e8ba381	0.2727318
35	0xbe4fb859	-0.20285167
36	0xbda71018	-0.081573665
37	0x3ed52118	0.4162681
38	0x3e850347	0.25979063
39	0xbe9cb0b9	-0.3060358
40	0x3d76735c	0.06016861
41	0xbcdc8d03	-0.026922708
42	0x3e2bde94	0.16784126
43	0x3df496b5	0.119428076
44	0xbe8a9794	-0.2706877
45	0xbe78f8f3	-0.24313717
46	0x3d6f1ffe	0.05838012
47	0x3ec58b80	0.38582993
48	0x3e3930fc	0.18085092
49	0xbe568d66	-0.20952377
50	0xbddea261	-0.10870815
51	0x3ddb1ac0	0.106984615
52	0xbcae9dca	-0.021315474
53	0xbdb0d454	-0.086342484
54	0x3e2ef80c	0.1708681
55	0xbeb0348d	-0.34415093
56	0x3e3071f6	0.17230973
57	0x3e4cf434	0.20015031
58	0x3c670681	0.014100672
59	0x3e317976	0.1733149
60	0x3e6d2688	0.2315923
61	0x3c3dea51	0.01159151
62	0xbbbb3c60	-0.0057139844
63	0xbe3050a8	-0.17218268
64	0xbc61325a	-0.013744915
65	0x3f35c09d	0.7099703
66	0x3f13eb26	0.57780683
67	0x3d646c5d	0.055767406
68	0xbe7a5da4	-0.24449784
69	0xbb6aef39	-0.0035848154
70	0x3f34dbf5	0.7064813
71	0x3edad3f2	0.42739826
72	0xbe0a8eb2	-0.13530996
73	0x3e26ee3e	0.1630182
74	0xbe14ec00	-0.14543152
75	0xbc0639f7	-0.008192531
76	0xbcad3314	-0.02114252
77	0xbd134d4b	-0.035962384
78	0x3d22f87d	0.03978776
79	0xbeffbdf3	-0.49949607
80	0x3e426e5d	0.18987413
81	0x3e17b627	0.1481558
82	0x3e1f9dcb	0.15587537
83	0xbd2ad52c	-0.041707203
84	0x3e1b35e5	0.15157278
85	0xbcb603af	-0.022218553
86	0xbde1edd8	-0.11031693
87	0x3e928bcf	0.2862229
88	0x3e99f1e7	0.3006737
89	0xbe9f55b7	-0.31120083
90	0x3d265901	0.040612224
91	0xbd26d883	-0.040733825
92	0x3e8859aa	0.26630908
93	0x3e73587f	0.23764227
94	0xbe6cb562	-0.23116067
95	0x3d1d2463	0.03836478
96	0xbe91a20e	-0.2844395
97	0xbd03f428	-0.032215267
98	0xbfa43ada	-1.283046
99	0x3e016e95	0.1263984
100	0x3d739c4f	0.05947524
101	0xbf0d82ff	-0.5527801
102	0xbe59c3a0	-0.21266031
103	0x3ee6f18f	0.4510617
104	0xbe0ba366	-0.1363655
105	0xbd632734	-0.05545731
106	0x3e574d97	0.21025692
107	0xbe44d0f3	-0.19220333
108	0x3e17bf62	0.148191
109	0x3e5d7050	0.21624875
110	0x3e0adf27	0.13561688
111	0xbe632f00	-0.22185898
112	0x3e8d7183	0.27625665
113	0x3e9f2eef	0.31090495
114	0x3b8cd50a	0.004297857
115	0x3d8f0cc0	0.06984854
116	0x3cfce335	0.03087006
117	0x3f0b33dc	0.54376006
118	0xbdc9d72b	-0.09855493
119	0xbe823ce9	-0.25437096
120	0xbcdfe12b	-0.027329048
121	0xbe2fd036	-0.1716927
122	0xbdb9929c	-0.09061167
123	0xbdfdb20d	-0.12387476
124	0x3e1bab9e	0.15202186
125	0xbc8f4f13	-0.01749376
126	0x3e4b42b8	0.1984967
127	0x3e703ba2	0.23460248
128	0x3ba29a88	0.004962269
129	0xbe13b2d2	-0.14423683
130	0xbc9a1018	-0.018806502
131	0xbd3c3281	-0.0459466
132	0x3e95e5e8	0.29276967
133	0x3e392b40	0.18082905
134	0xbe955cb3	-0.29172286
135	0xbd29f36c	-0.04149191
136	0x3cfa0808	0.030521408
137	0xbe3611af	-0.17780183
138	0xbdd5d865	-0.104416646
139	0xbdbb5f32	-0.091490164
140	0xbdf53efb	-0.11974903
141	0x3e3085c4	0.17238528
142	0x3d9e12a1	0.07718397
143	0x3daa72a1	0.08322645
144	0xbd871db9	-0.06597466
145	0xbe10d699	-0.14144363
146	0x3e3d6af5	0.18497832
147	0x3d31adda	0.04337869
148	0xbe23e679	-0.16005887
149	0xbe938f38	-0.28820205
150	0x3e57dea7	0.21081029
151	0xbe84173c	-0.25798976
152	0x3e0148a5	0.12625368
153	0x3e6ac561	0.22926857
154	0xbdb68867	-0.089127354
155	0x3d44fcdc	0.048092708
156	0xbdfe93bd	-0.124305226
157	0xbe7e6b6d	-0.24845667
158	0x3b5d3e72	0.0033759144
159	0x3daaa427	0.08332091
160	0x3e80bbbb	0.25143227
161	0xbc45f758	-0.012082897
162	0xbe0df8a2	-0.13864377
163	0xbd0b501d	-0.03401195
164	0x3f4dea33	0.80435485
165	0xbec4b271	-0.3841739
166	0x3e949ae5	0.29024425
167	0xbd07b68e	-0.033133082
168	0xbdf2fb12	-0.11864294
169	0xbed0f6f3	-0.40813407
170	0xbd0f57eb	-0.034995954
171	0xbd85a74e	-0.065260515
172	0xba800a50	-0.0009768698
173	0xbedb7d4e	-0.42869037
174	0xbe636d65	-0.222097
175	0x3d19b656	0.037527405
176	0x3d1cfeba	0.038328864
177	0x3c713681	0.014722467
178	0x3d7d22a2	0.061800607
179	0xbe1dc87c	-0.1540851
180	0xbe4c3c8c	-0.19944972
181	0xbd9f8654	-0.07789293
182	0xbea67699	-0.32512358
183	0x3c43b33d	0.011944589
184	0x3e110018	0.14160192
185	0xbc8c7c90	-0.01714924
186	0xbd35e4f6	-0.044407807
187	0xbd5fa093	-0.054596495
188	0x3d5135cf	0.051076706
189	0x3d20fb16	0.039301954
190	0xbd7f1150	-0.06227237
191	0xbdd27fd3	-0.10278287
192	0x3e867898	0.2626388
193	0x3e01bda3	0.12669997
194	0xbc7260ee	-0.014793618
195	0xbe6ef049	-0.23333849
196	0xbbb968e8	-0.0056582578
197	0x3fccdbc7	1.6004571
198	0x3e94696d	0.28986683
199	0x3e875805	0.2643434
200	0x3dda0d1f	0.10647034
201	0xbe4bea4b	-0.19913594
202	0xbd16aacc	-0.03678398
203	0x3e6fee3c	0.23430723
204	0x3e211bf2	0.15733317
205	0xbc42fb44	-0.011900727
206	0xbe8b0c6b	-0.27157912
207	0xbe07fbb3	-0.1327961
208	0x3ea5341d	0.32266322
209	0xbd9ce172	-0.07660188
210	0x3ce7bf78	0.028289542
211	0x3dcfb616	0.10142152
212	0x3e7a7665	0.24459226
213	0xbdd76172	-0.10516633
214	0x3d819074	0.0632638
215	0xbcb6c2d7	-0.022309704
216	0xbe160006	-0.14648446
217	0xbda556ba	-0.080731824
218	0xbe3ca192	-0.18421009
219	0xbcbd995f	-0.023144422
220	0xbc74c5d8	-0.014939748
221	0x3ec8ee79	0.3924444
222	0xbcc111fa	-0.023568142
223	0x3d50fe2f	0.05102366
224	0x3dce6c21	0.10079218
225	0x3e98dd54	0.2985636
226	0xbe89eb9b	-0.26937565
227	0xbc6895b4	-0.014195848
228	0xbea7b95e	-0.3275861
229	0xbce5d37b	-0.028054943
230	0xbf18e64c	-0.59726405
231	0x3f216d9d	0.6305788
232	0xbd84518d	-0.06460867
233	0x3f07ad31	0.52998644
234	0x3df48ec3	0.11941292
235	0x3f209d09	0.62739617
236	0xbe2aeeea	-0.16692701
237	0x3ed4f5b7	0.41593716
238	0xbe4c71ae	-0.1996524
239	0xbe5f3399	-0.21797027
240	0xbd122ada	-0.035685398
241	0x3e10244f	0.1407635
242	0xbe94a9ab	-0.29035696
243	0x3d843a2e	0.064564094
244	0xbe609b78	-0.21934307
245	0xbdee07a1	-0.11622549
246	0xbdf81937	-0.12114184
247	0x3db710ff	0.089387886
248	0x3e165aec	0.14683121
249	0x3cf63911	0.030056508
250	0x3db2e9c2	0.08735992
251	0xbc527599	-0.01284542
252	0x3dd1f01b	0.102508746
253	0x3e532224	0.20618492
254	0xbe3149f1	-0.17313363
255	0xbd7cd5f5	-0.061727483

fc1.bias f4 [512]
0	0xbf03feaa	-0.5156046
1	0xbe88b64c	-0.2670158
2	0xbedc5ce0	-0.43039608
3	0xbc2548e8	-0.010088183
4	0xbe3fc38e	-0.18726942
5	0xbe2c9717	-0.16854511
6	0xbe2f78d0	-0.1713593
7	0xbdee04ec	-0.116220325
8	0xbe811b14	-0.2521597
9	0xbde07f19	-0.10961742
10	0xbe96ad31	-0.2942901
11	0xbecf68bb	-0.4050959
12	0xbe231800	-0.15927124
13	0xbe9c70b4	-0.30554736
14	0xbeb594cc	-0.35465086
15	0xbe75b5a8	-0.23995078
16	0xbef63bab	-0.48092398
17	0xbef13018	-0.47107005
18	0xbeb5acf3	-0.35483512
19	0xbec7b897	-0.39008018
20	0xbe917391	-0.28408483
21	0x3daaa25a	0.08331747
22	0xbe993b58	-0.29928088
23	0xbea546db	-0.3228062
24	0xbee5a200	-0.4485016
25	0xbe3e1959	-0.18564357
26	0xbeb915b7	-0.3614938
27	0xbeb34e34	-0.35020602
28	0xbe962e27	-0.29332086
29	0xbeb0863e	-0.3447742
30	0xbcc3f505	-0.023920545
31	0xbea92459	-0.33035544
32	0xbe0e9421	-0.13923694
33	0xbe66ff2f	-0.22558282
34	0xbeb029c5	-0.34406868
35	0xbe94c658	-0.29057574
36	0xbeec1409	-0.46109036
37	0xbe29ed2e	-0.16594383
38	0xbe916bb2	-0.28402478
39	0xbec69bc0	-0.38790703
40	0xbe7bd96b	-0.24594657
41	0xbea90d51	-0.33017972
42	0xbeb6364f	-0.3558831
43	0xbeefdf7f	-0.468502
44	0xbe91fef1	-0.28514817
45	0xbe58d668	-0.2117554
46	0xbeb4c686	-0.3530771
47	0x3da61fae	0.08111511
48	0xbe5f1e6a	-0.21788946
49	0xbda7932c	-0.08182368
50	0xbefd6320	-0.4948969
51	0xbec0e0b3	-0.37671432
52	0x3e23eb24	0.16007668
53	0xbd77c8f1	-0.060494367
54	0xbe99997d	-0.29999915
55	0xbe804549	-0.2505286
56	0x3be042cf	0.0068439017
57	0xbdcc41c0	-0.09973478
58	0xbe795d0c	-0.24351901
59	0xbc8385f1	-0.01605508
60	0xbec8d69a	-0.39226228
61	0xbe908324	-0.28225052
62	0xbea4d6c1	-0.32195094
63	0xbe55e1df	-0.20886944
64	0xbe915d9a	-0.28391725
65	0xbee838c1	-0.453558
66	0xbed4a0ef	-0.41529033
67	0xbe3b0c3d	-0.18266387
68	0xbee186b9	-0.44048098
69	0xbe06d0cc	-0.13165587
70	0xbe0692f0	-0.1314199
71	0xbeb12d74	-0.3460499
72	0xbe87fa9d	-0.2655839
73	0xbe0fa4d9	-0.14027728
74	0xbe8f917b	-0.2804068
75	0xbe03b27b	-0.12861054
76	0xbdbc724f	-0.0920149
77	0xbe7a6545	-0.24452694
78	0xbe974fd8	-0.29553103
79	0xbe005ad2	-0.12534645
80	0xbe597727	-0.2123686
81	0xbe8c80c0	-0.27441978
82	0xbeb1e56f	-0.34745356
83	0xbed714c6	-0.42008036
84	0xbdd424d2	-0.103585854
85	0x3de7065d	0.112805106
86	0xbdfd3f13	-0.12365546
87	0xbed75fc3	-0.42065248
88	0xbec7462a	-0.38920718
89	0xbeb221c8	-0.34791398
90	0x3d2651c2	0.040605314
91	0xbda2dd48	-0.07952362
92	0xbe96aa12	-0.29426628
93	0xbeb51fd3	-0.35375842
94	0xbafae937	-0.001914299
95	0xbd08387f	-0.033257004
96	0xbddf4b04	-0.1090298
97	0xbe75b209	-0.23993696
98	0xbddaa538	-0.10676044
99	0xbe64892f	-0.22317956
100	0xbe8261ad	-0.25465146
101	0xbd12a12d	-0.03579824
102	0xbcc91176	-0.024544459
103	0xbcf82405	-0.030290613
104	0xbe6ef021	-0.2333379
105	0xbf13d2b6	-0.57743394
106	0xbe8a318c	-0.26990926
107	0xbd89a3a0	-0.06720662
108	0xbedea98a	-0.43488723
109	0xbe840ca2	-0.25790888
110	0xbf24260a	-0.64120543
111	0xbe03b4c7	-0.1286193
112	0xbe91aaf2	-0.28450733
113	0xbe696561	-0.22792579
114	0xbeafd9ff	-0.34346005
115	0xbe3ec174	-0.18628484
116	0xbe7d265c	-0.24721664
117	0x3da8cc91	0.08242143
118	0xbf016a1b	-0.5055253
119	0xbe953eb5	-0.29149404
120	0xbda0405f	-0.07824778
121	0xbebf8987	-0.37409613
122	0xbeaec46f	-0.34134242
123	0xbe62b6d4	-0.22140056
124	0xbde767d7	-0.11299103
125	0xbee60154	-0.44922888
126	0x3d8128d7	0.06306618
127	0xbed3c0cb	-0.41358027
128	0xbe97360e	-0.29533428
129	0xbe1e6405	-0.15467842
130	0xbee2fd63	-0.44333944
131	0xbdba4475	-0.090950884
132	0xbeb05887	-0.3444254
133	0xbe77e26e	-0.2420747
134	0xbe7bcd0b	-0.24589936
135	0xbdd7d337	-0.10538333
136	0xbf12ef41	-0.5739632
137	0xbe91811a	-0.2841881
138	0xbe958242	-0.2920094
139	0xbed96264	-0.4245788
140	0xbeb85920	-0.36005497
141	0xbe379236	-0.17926869
142	0x3dc8a2a3	0.097966455
143	0xbead8fc2	-0.3389874
144	0xbed11094	-0.4083296
145	0xbd62c725	-0.0553657
146	0xbf083499	-0.5320526
147	0xbe7d16f2	-0.24715784
148	0xbe9b94c7	-0.30386946
149	0xbe5f55ab	-0.21810023
150	0xbead5720	-0.33855534
151	0xbee31c85	-0.44357696
152	0xbea81864	-0.3283111
153	0xbe13ab82	-0.14420894
154	0xbe58668a	-0.21132866
155	0xbee22ac0	-0.4417324
156	0xbeeb4d8c	-0.459576
157	0xbe9be85b	-0.3045071
158	0xbddc5bc1	-0.10759688
159	0xbeeec223	-0.4663249
160	0xbeb7c172	-0.35889775
161	0xbead29c5	-0.3382093
162	0xbe8e53df	-0.27798364
163	0xbe9de98f	-0.30842254
164	0xbe39b9fe	-0.18137357
165	0xbb9f0529	-0.00485291
166	0xbe6da773	-0.23208408
167	0x3d9ee1b7	0.077578954
168	0xbeda46c3	-0.42632112
169	0xbe929dac	-0.2863592
170	0xbeb17fac	-0.34667718
171	0xbe1ced6d	-0.15324946
172	0xbebdd4b1	-0.37076333
173	0xbe9cc4df	-0.3061895
174	0xbed62a91	-0.4182935
175	0xbe9a8a3a	-0.30183583
176	0x3c83edee	0.016104665
177	0xbe553ef1	-0.20824791
178	0xbdd8dde1	-0.10589195
179	0xbe96358b	-0.29337725
180	0xbe8f898a	-0.2803462
181	0xbec2c236	-0.38038796
182	0xbdf078f2	-0.117418185
183	0xbe311c3b	-0.17295925
184	0xbea4fa18	-0.32222056
185	0x3e51267c	0.20424837
186	0xbe60308d	-0.2189352
187	0x3e0017d8	0.12509096
188	0xbe94da5a	-0.2907284
189	0xbdbbcd03	-0.09169962
190	0xbe89f34f	-0.26943442
191	0xbe0fd51a	-0.14046136
192	0xbeb29739	-0.34881
193	0xbefe93e9	-0.49722221
194	0xbe8d92e8	-0.27651143
195	0xbee3bc4f	-0.44479606
196	0xbe38ffe6	-0.18066368
197	0xbe1c1d49	-0.15245546
198	0xbe99df8b	-0.30053362
199	0xbeaacd91	-0.3335996
200	0xbe8dc916	-0.2769248
201	0xbe631ef3	-0.22179775
202	0xbe080240	-0.13282108
203	0xbe4a598b	-0.1976072
204	0xbe0f125a	-0.13971844
205	0xbef6ae74	-0.48179972
206	0xbd82f6e1	-0.06394745
207	0xbe6479a1	-0.22312023
208	0xbe863ad1	-0.26216748
209	0xbefb31b8	-0.4906137
210	0xbf015702	-0.5052339
211	0xbd936156	-0.071963
212	0xbd3e7610	-0.046499312
213	0xbca0ba97	-0.019620223
214	0xbeb9a8ca	-0.36261588
215	0xbea6acf7	-0.32553837
216	0x3c26d343	0.010182205
217	0xbe7d45b8	-0.24733627
218	0xbe5bf4d6	-0.21480116
219	0xbe30cfb5	-0.17266734
220	0xbe86ac7e	-0.26303476
221	0xbe93c9b6	-0.2886483
222	0xbea3f109	-0.32019833
223	0xbe8dbcb3	-0.2768303
224	0xbebd4aed	-0.36971226
225	0xbeba94a8	-0.3644154
226	0xbedc23fe	-0.4299621
227	0xbebe07eb	-0.37115416
228	0xbe574c1e	-0.2102513
229	0xbf1bcab9	-0.60856205
230	0xbe02d5c5	-0.12776859
231	0xbe764289	-0.24048819
232	0xbe52933b	-0.20563976
233	0xbe66e04a	-0.22546497
234	0xbd83333b	-0.06406256
235	0xbdf11ed2	-0.11773457
236	0xbe8585b3	-0.26078567
237	0x3e20cf10	0.15703988
238	0xbc7b7476	-0.015347591
239	0xbed387ae	-0.41314453
240	0xbd024729	-0.031806145
241	0xbed7a7af	-0.4212012
242	0xbeb7955c	-0.3585614
243	0xbe1324f5	-0.14369567
244	0xbcea63b9	-0.028612005
245	0xbec3e5fc	-0.38261402
246	0xbedb86d5	-0.42876306
247	0xbef16347	-0.47146055
248	0xbd93933c	-0.07205817
249	0xbe3f975e	-0.18710086
250	0xbe788c72	-0.24272326
251	0xbecd6c2b	-0.40121588
252	0xbd8f8bca	-0.070090845
253	0xbd837a11	-0.06419767
254	0xbd95c0da	-0.07312174
255	0xbe36d993	-0.17856435

fc2.weight f4 [64, 512]
0	0x3f421bec	0.75823855
1	0x3cf82e0e	0.030295398
2	0xbe2850e4	-0.16437107
3	0x3ebce986	0.36896914
4	0xbdc67201	-0.09689713
5	0x3ea2b6e1	0.3178015
6	0xbcb2648c	-0.02177646
7	0xbef6d550	-0.4820962
8	0x3eec65c6	0.46171397
9	0x3e8b7df1	0.27244523
10	0xbf14240b	-0.578675
11	0xbe5e1329	-0.21686997
12	0xbdb6e774	-0.08930865
13	0xbd339b9a	-0.043849565
14	0x3e1ba707	0.15200435
15	0xbe943273	-0.2894474
16	0x3ddb2781	0.10700894
17	0xbe198860	-0.14993429
18	0x3d2c086e	0.042000227
19	0xbdff873f	-0.12476968
20	0xbe0319ee	-0.1280286
21	0x3d8e5bbe	0.06951092
22	0xbdd1b96f	-0.10240447
23	0xbdec8e4e	-0.1155058
24	0xbe74b2bb	-0.23896305
25	0x3c61756f	0.0137609085
26	0x3ed57cfc	0.41696918
27	0xbdcc734c	-0.09982929
28	0xbe9e0a3a	-0.30867177
29	0x3daf8686	0.0857058
30	0xbe6464e4	-0.22304112
31	0xbcc9665b	-0.02458494
32	0xbe1c1bf9	-0.15245046
33	0xbc4c49f4	-0.012468804
34	0x3ebf50f7	0.3736646
35	0xbd70d9d5	-0.05880149
36	0x3db27856	0.087143585
37	0xbe701a9a	-0.23447648
38	0xbe010585	-0.12599762
39	0xbe87302d	-0.26403943
40	0x3d924002	0.07141115
41	0xbd4ead19	-0.050458048
42	0xbb96b059	-0.004598659
43	0x3ede15c5	0.43375984
44	0xbde7a146	-0.11310057
45	0xbe5599b6	-0.20859417
46	0x3e15396e	0.14572689
47	0x3e891d8b	0.26780352
48	0xbb653d06	-0.0034979
49	0xbe07a1a7	-0.13245259
50	0x3e7576d4	0.2397111
51	0x3e9a4efc	0.30138385
52	0xbf0794e4	-0.52961564
53	0x3eace5a5	0.33768955
54	0x3e8a27cd	0.2698349
55	0xbdb93041	-0.09042407
56	0x3eb31d76	0.34983414
57	0x3d3ed735	0.046591956
58	0x3eb7c032	0.3588882
59	0xbdb37200	-0.08761978
60	0x3e39e3bb	0.18153279
61	0x3d7cdedb	0.06173597
62	0xbd2f2fab	-0.04277007
63	0xbe2d823d	-0.16944213
64	0xbeaa83df	-0.33303735
65	0xbd8ac77b	-0.06776329
66	0x3ec7e0fe	0.39038843
67	0xbe97a19e	-0.29615492
68	0xbcc83f13	-0.024444139
69	0x3e9dd49a	0.30826265
70	0xbea552a6	-0.32289618
71	0x3dd4885a	0.103775695
72	0x3e8462f6	0.2585675
73	0xbe85d109	-0.26136044
74	0xbec4ed83	-0.38462457
75	0xbe11011f	-0.14160584
76	0xbd4f92db	-0.05067716
77	0xbd2e4096	-0.042542063
78	0x3e4b41db	0.1984934
79	0xbe3504d2	-0.1767762
80	0xbdc0ddf4	-0.09417334
81	0xbe76d512	-0.24104717
82	0x3da97051	0.08273376
83	0x3edacbb6	0.42733544
84	0xbcd8aaa2	-0.026448552
85	0xbc1b2b2b	-0.009470741
86	0x3f45f95a	0.77333605
87	0x3ebe059e	0.3711366
88	0xbe9dd851	-0.308291
89	0xbf097e55	-0.5370839
90	0xbe0ab6d5	-0.13546307
91	0x3e81831a	0.25295335
92	0x3e992373	0.29909858
93	0x3d3527ed	0.04422753
94	0x3d283047	0.041061666
95	0x3ee17d57	0.4404094
96	0xba758595	-0.00093659136
97	0xbe25529f	-0.16144799
98	0xbe09c962	-0.13455728
99	0x3edc0a1e	0.4297647
100	0x3e8c4919	0.2739952
101	0x3e0597f9	0.13046254
102	0xbe92aecc	-0.28648984
103	0xbee30275	-0.44337812
104	0xbed30e0d	-0.41221657
105	0x3e9e541f	0.30923554
106	0x3e8a035a	0.26955682
107	0x3ecb3e47	0.3969595
108	0xbdc1b436	-0.09458201
109	0xbcd8c958	-0.026463196
110	0x3e3eac08	0.18620312
111	0x3da7337a	0.08164115
112	0x3d98d84e	0.07463132
113	0x3f0d964f	0.5530748
114	0xbe8b6d7e	-0.27231973
115	0xbdb4b109	-0.08822829
116	0x3e883eac	0.26610315
117	0xbdbd700d	-0.092498876
118	0x3ea0db37	0.31417248
119	0xbd5926e5	-0.05301561
120	0xbd758b37	-0.05994722
121	0x3ec4d106	0.38440722
122	0x3e71ff08	0.23632443
123	0xbe83162c	-0.25602853
124	0xbe2fb9b6	-0.17160687
125	0x3e6cd8f5	0.23129638
126	0xbe34c276	-0.17652306
127	0xbd0f9482	-0.035053737
128	0xbd2f854b	-0.042851727
129	0x3e2db457	0.16963325
130	0x3e9f191f	0.31073853
131	0x3e5eaf42	0.21746543
132	0x3d103344	0.03520514
133	0xbe03bd5c	-0.12865204
134	0xbc886fbb	-0.01665484
135	0x3da9604c	0.0827032
136	0xbd513324	-0.051074162
137	0x3d8138d2	0.06309666
138	0xbe551191	-0.20807482
139	0xbe9a8951	-0.3018289
140	0x3e91f36e	0.28506035
141	0xbec6c0ac	-0.38818872
142	0xbed7c0d8	-0.42139316
143	0xbd6e9600	-0.05824852
144	0xbe19f4ec	-0.15034837
145	0x3d939fde	0.072082266
146	0x3e71d656	0.23616919
147	0x3e5c90a6	0.21539554
148	0x3ee3c278	0.44484305
149	0x3ea66bbb	0.32504067
150	0xbe1614a2	-0.14656308
151	0x3c468d7d	0.012118694
152	0x3e4d74d9	0.20064105
153	0xbd2b145f	-0.041767474
154	0xbe5678ee	-0.20944569
155	0x3e3e3c9d	0.1857781
156	0xbea8e4f7	-0.32987186
157	0x3e6f9a8e	0.23398802
158	0x3e39ff59	0.18163814
159	0x3e301278	0.17194545
160	0xbe2bb7df	-0.1676936
161	0xbe11a0d1	-0.14221503
162	0xbf5231b0	-0.8210707
163	0x3ea5da8b	0.32393298
164	0x3de53908	0.111925185
165	0xbe39278e	-0.18081495
166	0xbef154c7	-0.47134992
167	0xbd83612a	-0.06415017
168	0xbe7c1e8e	-0.2462103
169	0x3f09215d	0.53566533
170	0xbe86b82e	-0.26312393
171	0xbe54729a	-0.20746842
172	0xbe501bf3	-0.20323162
173	0x3de9df3c	0.11419532
174	0x3ed65c7e	0.4186744
175	0xbe1debe2	-0.15422013
176	0xbec5a156	-0.38599652
177	0xbf426281	-0.75931555
178	0xbd952303	-0.072820686
179	0x3e86f825	0.26361194
180	0x3d9e40e9	0.077272244
181	0xbdbfffbf	-0.093749516
182	0xbe9b50c2	-0.3033505
183	0x3e9ff11b	0.31238636
184	0xbf08b3f5	-0.5339959
185	0xbed4cf7c	-0.41564548
186	0xbe33cfd8	-0.17559755
187	0xbecba479	-0.3977392
188	0xbea64ea7	-0.32481882
189	0x3e176dac	0.1478793
190	0xbd56307d	-0.052292336
191	0x3e08759b	0.13326113
192	0xbe6ad13e	-0.22931382
193	0x3dcce956	0.10005443
194	0x3c5c6ad9	0.013453209
195	0x3da8ce75	0.082425036
196	0xbcbc64bf	-0.022997258
197	0x3dd09096	0.101838276
198	0x3eac3773	0.33636054
199	0xbe704e29	-0.23467316
200	0xbd6b1c22	-0.057399876
201	0xbd6eceb4	-0.058302596
202	0x3f271db7	0.65279716
203	0xbce7fa42	-0.028317574
204	0x3e1bfe80	0.15233803
205	0xbc47ff6d	-0.012206894
206	0xbdf0559b	-0.11735078
207	0xbe8685ae	-0.26273865
208	0x3e77b77f	0.24191092
209	0xbeb366f1	-0.35039476
210	0xbea11721	-0.31462958
211	0xbe77900a	-0.2417604
212	0x3e6ff6e9	0.23434032
213	0x3cd9ae1e	0.026572283
214	0xbe81bf7a	-0.25341398
215	0x3e4f6b1e	0.20255706
216	0xbc998670	-0.018740863
217	0xbd312607	-0.043249156
218	0x3e2b0aed	0.16703387
219	0xbddf9c9c	-0.10918543
220	0x3de449be	0.11146878
221	0xbd2992d5	-0.041399796
222	0x3e47b7c7	0.19503699
223	0xbe9ab084	-0.30212796
224	0x3ef338cb	0.47504267
225	0x3e75d48a	0.24006858
226	0xba617ea9	-0.00086019427
227	0xbeba3e24	-0.36375535
228	0xbd5cba0a	-0.05388836
229	0xbeff4db4	-0.4986397
230	0xbd51a47c	-0.051182255
231	0x3e31a804	0.17349249
232	0xbe271ef7	-0.16320406
233	0xbe2460c0	-0.16052532
234	0x3e590073	0.21191578
235	0x3ce9151f	0.028452454
236	0x3d40619d	0.04696809
237	0xbe849a3a	-0.25898916
238	0x3d855f84	0.06512359
239	0xbe96916b	-0.2940782
240	0xbe147071	-0.14496018
241	0xbe017004	-0.12640387
242	0x3e8a5d5a	0.27024347
243	0x3e252a7e	0.1612949
244	0xbe776a73	-0.24161701
245	0xbe158469	-0.14601292
246	0x3e0fc855	0.14041264
247	0xbe4b79b1	-0.1987064
248	0x3d8d2dab	0.06893476
249	0xbeccb6ba	-0.3998316
250	0x3e92a6a1	0.28642753
251	0xbd3559d0	-0.044275105
252	0xbe7b4e59	-0.24541606
253	0x3cc91e38	0.024550542
254	0x3eac4300	0.33644867
255	0x3bfa2b38	0.0076345466

fc2.bias f4 [64]
0	0xbe89e55b	-0.26932797
1	0xbdaa11b6	-0.08304159
2	0xbd215334	-0.03938599
3	0xbe88b93c	-0.26703823
4	0xbea38db2	-0.31944042
5	0xbe84a56c	-0.25907457
6	0x3c996d3f	0.01872885
7	0xbe351b4b	-0.17686193
8	0xbe1ef2f3	-0.15522365
9	0xbe18cfd4	-0.1492303
10	0xbe215a63	-0.15757136
11	0xbde248d3	-0.11049046
12	0xbd398880	-0.045296192
13	0xbcf25c82	-0.029585127
14	0xbe4e9b5d	-0.20176454
15	0xbd3c765a	-0.046011306
16	0x3d66dd92	0.05636365
17	0x3deaeecb	0.114713274
18	0xbe2ac78e	-0.16677687
19	0x3944853e	0.00018741653
20	0x3e1a89de	0.15091655
21	0x3e1941e9	0.14966549
22	0x3e9bc824	0.30426133
23	0xbeef3c1b	-0.46725544
24	0xbbd6a42d	-0.006550333
25	0x3dc73cc8	0.0972839
26	0xbd2a15ce	-0.0415247
27	0xbe3d460f	-0.18483756
28	0xbefb0ffe	-0.4903564
29	0xb949f942	-0.0001926171
30	0xbdc9489e	-0.09828304
31	0xbcd39e25	-0.025832245
32	0x3e43d4cb	0.19124143
33	0x3cb1e6c2	0.02171648
34	0x3e247848	0.16061509
35	0x3d8eff77	0.0698232
36	0xbe03a6b5	-0.12856562
37	0xbeab9b89	-0.335171
38	0xbdde2bd6	-0.10848205
39	0xbe717cde	-0.2358279
40	0xbe2ceade	-0.1688647
41	0xbe401beb	-0.1876065
42	0xbdf7c529	-0.12098152
43	0xbe54ede9	-0.2079388
44	0x3dbb923d	0.09158752
45	0x3e3c90b3	0.18414573
46	0xbe4941af	-0.19653963
47	0xbdd0354b	-0.10166415
48	0x3d9bf1ab	0.07614454
49	0x3b6054e4	0.0034230286
50	0x3e159414	0.14607269
51	0x3d059c3b	0.032619696
52	0x3e55ea8f	0.20890258
53	0xbea408c1	-0.3203793
54	0xbe01b03f	-0.12664889
55	0xbe2615dc	-0.16219276
56	0xbe010185	-0.12598236
57	0xbe4a94d7	-0.1978334
58	0xbda17203	-0.07883074
59	0xbe84e27d	-0.25954047
60	0xbdfe717e	-0.12423991
61	0xbe77705b	-0.24163954
62	0xbe315b99	-0.17320098
63	0xbea157a5	-0.3151218

fc3.weight f4 [4, 64]
0	0xbea60819	-0.32428053
1	0x3f44ca19	0.76870877
2	0xbe3d6776	-0.18496498
3	0x3f4a6234	0.79056096
4	0xbf0da6a0	-0.55332375
5	0xbe206db0	-0.15666842
6	0x3f23d7d8	0.64001226
7	0x3d3526c8	0.044226438
8	0xbf113be4	-0.5673201
9	0x3e7f16aa	0.2491099
10	0xbf35827c	-0.7090223
11	0x3ecb55c2	0.39713866
12	0xbe48aee8	-0.19597971
13	0xbf158faa	-0.5842234
14	0xbe3a9610	-0.18221307
15	0x3f243ad7	0.6415228
16	0x3f06413b	0.52443284
17	0x3f30a4ee	0.6900166
18	0xbef0bfda	-0.4702137
19	0xbee6a0fd	-0.450447
20	0xc0648c91	-3.5710795
21	0x3e557fe8	0.20849574
22	0xbd0b5f12	-0.034026213
23	0x3ed08efd	0.4073409
24	0xc01698d2	-2.3530774
25	0xbd9fbb14	-0.07799354
26	0xbf2e685e	-0.68128
27	0x3d47d009	0.048782382
28	0x3cafb486	0.021448385
29	0x3f4fe04c	0.81201625
30	0x3e1031be	0.14081475
31	0x3d69a300	0.057040215
32	0x3f779227	0.96707386
33	0xbf079d39	-0.5297428
34	0x3f04aec4	0.5182917
35	0x3ddc20dc	0.10748455
36	0x3edca98e	0.4309811
37	0xbaccaa7f	-0.0015614777
38	0x3cca5faa	0.02470382
39	0xbe28f5fd	-0.16500087
40	0x3edf4358	0.43606067
41	0xbf3f1850	-0.7464647
42	0xbe7c2850	-0.24624753
43	0x3de512bf	0.11185216
44	0x3ecb0f34	0.39660037
45	0x3eb6a9b0	0.35676336
46	0xbe14faee	-0.14548847
47	0x3e2bc3c6	0.167739
48	0xbed3ccdb	-0.4136723
49	0xbe32eca3	-0.17473082
50	0x3f0d82b6	0.55277574
51	0xbed1f854	-0.41009772
52	0xc00fe6ec	-2.2484694
53	0xbf38dc3d	-0.72211057
54	0x3eca90cd	0.395636
55	0xbece90e1	-0.4034491
56	0x3f0c0998	0.5470214
57	0xbf07a692	-0.5298854
58	0xbeadec6e	-0.33969444
59	0x3eab21eb	0.33424315
60	0x3f074aed	0.528487
61	0x3e06154a	0.13094059
62	0xbee360c0	-0.44409752
63	0xbe1bee67	-0.15227662
64	0xbfac7fa4	-1.3476453
65	0x3f25b559	0.6472984
66	0xbeafe0f4	-0.34351313
67	0x3eae009a	0.33984834
68	0x3f25da08	0.64785814
69	0x3ea837c6	0.32855052
70	0x3f8a5879	1.080825
71	0x3f7e1011	0.99243265
72	0x3f3330b4	0.6999619
73	0x3e86a21a	0.2629555
74	0x3fe12591	1.7589589
75	0x3f6b11c1	0.91823965
76	0xbece25ba	-0.40263158
77	0x3e82972c	0.2550596
78	0x3f4384f6	0.7637476
79	0xbfaec2b9	-1.3653175
80	0xbf162b54	-0.58659863
81	0x3b810e82	0.003938497
82	0x3e64ecd3	0.22355966
83	0x3eb87fd9	0.3603504
84	0xbea548f0	-0.3228221
85	0xbdd5a0d2	-0.10431065
86	0xc0049222	-2.0714192
87	0xbfd2ff9b	-1.6484255
88	0x3eed2559	0.46317557
89	0xbf2095a2	-0.6272832
90	0x3dbaa414	0.09113327
91	0xbe629a6e	-0.22129223
92	0xbf8ebde5	-1.1151701
93	0xbea7d2b4	-0.3277794
94	0xbfa00685	-1.250199
95	0x3d8c425f	0.06848597
96	0xbf2632b2	-0.64921105
97	0x3fe6e79f	1.8039435
98	0x3f867c37	1.0506657
99	0xbdc70ae7	-0.09718876
100	0xbd069124	-0.03285326
101	0xbf402f90	-0.75072575
102	0xbcbef71b	-0.023311188
103	0xbf6508dd	-0.8946665
104	0x3f298ca8	0.6623025
105	0x3fc93add	1.5721089
106	0x3f08c067	0.5341858
107	0x3f1cad12	0.61201584
108	0x3fb46ced	1.4095742
109	0xbea840c8	-0.32861924
110	0xbf4cf56b	-0.8006198
111	0xbd91d4ff	-0.07120704
112	0xbf6fff8f	-0.93749326
113	0x3f101983	0.5628893
114	0xbf13af02	-0.57688916
115	0xbec20748	-0.3789618
116	0xbd0b5384	-0.034015194
117	0xbf384c34	-0.71991277
118	0x3ee4fc1f	0.44723603
119	0xbf9922ef	-1.1963786
120	0x3cb34cf0	0.021887273
121	0x3f7aa9ca	0.9791533
122	0x3fc8e17e	1.5693815
123	0xbe29d679	-0.16585721
124	0xbf3c55a4	-0.7356818
125	0xbef00441	-0.46878245
126	0xbf3cef3c	-0.7380254
127	0x3eb4d759	0.35320547
128	0xbc87d620	-0.016581595
129	0x3d21fa0d	0.039545108
130	0xbcb16dd3	-0.021658814
131	0x3d22fe26	0.039793156
132	0x3f1ceaec	0.6129596
133	0x3e910cdf	0.28330132
134	0x3ccc40c0	0.024933219
135	0x3e852b47	0.2600958
136	0xbcc3802f	-0.023864834
137	0x3d996b78	0.07491201
138	0x3bcf9e88	0.006336037
139	0xbd3ca21a	-0.04605303
140	0xbddec00e	-0.10876475
141	0x3d453e90	0.048155367
142	0xbdaaf91b	-0.08348294
143	0x3c419df8	0.011817448
144	0x3d74dc26	0.059780262
145	0xbd5b7fbe	-0.05358862
146	0xbf655dfa	-0.8959652
147	0x3e680db6	0.2266148
148	0xbcfad257	-0.030617876
149	0xbdbc6780	-0.091994286
150	0x3c8bb75c	0.017055206
151	0x3da7584a	0.08171137
152	0x3ba79141	0.005113751
153	0xbf98c662	-1.1935542
154	0x3d2a46c2	0.041571386
155	0xbf24addd	-0.64327794
156	0xbe23c252	-0.15992096
157	0x3d4abd73	0.04949708
158	0xbce51901	-0.027966024
159	0xc0283968	-2.6285038
160	0xbb0f70e4	-0.0021887356
161	0x3cabd5f4	0.020976044
162	0xbab054c5	-0.0013452998
163	0x3dc6d18c	0.09707937
164	0xbee3f202	-0.44520575
165	0xbe1a0fff	-0.15045165
166	0xc0843675	-4.1316476
167	0xbb005814	-0.0019583749
168	0xbca8ce84	-0.020606287
169	0xbfcefbaa	-1.6170552
170	0x3c16f51b	0.009213711
171	0x3e478e58	0.19487894
172	0xbca66c36	-0.02031527
173	0x3db48cec	0.08815941
174	0xbe1b6ddc	-0.15178627
175	0x3d899b56	0.06719081
176	0x3b86e3f0	0.0041165277
177	0xbc558fcf	-0.013034775
178	0xbd368dc4	-0.044568792
179	0xbdced675	-0.10099498
180	0x3c9bc9f8	0.019017205
181	0x3c87af62	0.016563121
182	0xbdb97a7e	-0.09056567
183	0xbcd110db	-0.025520733
184	0xbd16a3e1	-0.03677738
185	0x3dbca43e	0.09211014
186	0x3ca75572	0.020426486
187	0xbe31e6af	-0.17373155
188	0xbb220b54	-0.002472599
189	0x3e429b7d	0.19004627
190	0xbddf9a5f	-0.10918116
191	0x3eae8719	0.34087446
192	0x3d93e21b	0.072208606
193	0xbd281e90	-0.04104477
194	0xbf8758de	-1.0573995
195	0xbdd576ba	-0.10423036
196	0x3d5d12e6	0.0539731
197	0xbbbbc743	-0.005730541
198	0x3ca9f312	0.020745788
199	0x3e2a4717	0.16628681
200	0x3dc8a663	0.09797361
201	0x3f355bc5	0.70843154
202	0xbd92da00	-0.071704865
203	0xbc8807d3	-0.016605293
204	0xbd967110	-0.07345784
205	0xbdb339bf	-0.087512486
206	0x3d8ddd0e	0.069269285
207	0x3c725cff	0.01479268
208	0x3d30f92d	0.043206383
209	0xbd683f39	-0.05670092
210	0xbd2fc7a0	-0.042914987
211	0x3d31c1cb	0.043397706
212	0x3b76b53b	0.0037644643
213	0x3e1156d9	0.14193286
214	0x3d8bb831	0.06822241
215	0xbbda6f54	-0.0066661034
216	0x3c1be984	0.009516124
217	0x3d1e7f1a	0.038695432
218	0xbd1129e1	-0.03544033
219	0x3df38d7f	0.118922226
220	0x3f3cff05	0.7382663
221	0x3c95082a	0.01819237
222	0xbcf6061e	-0.030032214
223	0xbd24c9f0	-0.040231645
224	0x3bc5c610	0.006035574
225	0x3cc933fd	0.024560923
226	0x3f7b441e	0.98150814
227	0xbe00dc43	-0.12584023
228	0xbe66c195	-0.22534783
229	0xbbc29892	-0.005938598
230	0x3c702861	0.014658065
231	0xbdbf66a4	-0.09345749
232	0x3f24834d	0.6426285
233	0xbe59e969	-0.21280445
234	0xbe42f32f	-0.1903808
235	0x3eb4a5aa	0.35282642
236	0xbd91c87c	-0.071183175
237	0xbee66bb7	-0.45004055
238	0x3d85b012	0.06527723
239	0x3decc383	0.115607284
240	0x3d1a3c29	0.03765503
241	0x3db698ea	0.08915885
242	0x3df5ecdf	0.1200807
243	0xbd80eb09	-0.062948294
244	0x3ca9d17b	0.02072977
245	0xbcdf7472	-0.027277205
246	0xbde11b85	-0.10991577
247	0x3d391489	0.0451856
248	0x3dcbdd9c	0.09954378
249	0xbf04d828	-0.5189233
250	0xbd076465	-0.033054728
251	0x3f07559f	0.5286502
252	0xbd1af60f	-0.037832316
253	0x3f001f3c	0.5004766
254	0xbe660439	-0.22462548
255	0x3c8c57c0	0.017131686

fc3.bias f4 [4]
0	0x3e8607ac	0.26177728
1	0x3dd3d0ec	0.10342583
2	0x3db5d5f0	0.08878696
3	0xbce80b39	-0.028325664
