checkpoint_critic.pth (torch_old, 203260 bytes, 5 tensors)

fcs1.weight f4 [512, 33]
0	0x3cb4c138	0.02206479
1	0x3ec8e025	0.3923351
2	0x3e8a73c7	0.27041456
3	0xbea2be8f	-0.3178601
4	0x3e17149a	0.14753953
5	0xbdc6f1d5	-0.097140945
6	0x3cf47679	0.029841648
7	0xbe0a3d8b	-0.1350004
8	0x3db84e22	0.08999278
9	0x3e8d5bdb	0.27609143
10	0x3d30753d	0.043080557
11	0x3da1eed0	0.07906878
12	0xbe4e9145	-0.20172603
13	0x3d8ef857	0.06980961
14	0x3e2eec90	0.17082429
15	0xbcaaeeda	-0.020865846
16	0xbe1246c7	-0.14284812
17	0x3d9e84f1	0.077402
18	0xbc8410f0	-0.016121358
19	0x3cc67acb	0.024228474
20	0xbdae7ab1	-0.08519495
21	0xbb75b83b	-0.0037493843
22	0xbdca4953	-0.09877267
23	0xbdf4314b	-0.119234644
24	0x3e3808a2	0.17972043
25	0xbcb1ebae	-0.021718826
26	0xbcd29f1e	-0.025710639
27	0x3ed97874	0.4247471
28	0x3dd3d73e	0.103437886
29	0x3cd7f53a	0.02636205
30	0xbef08fa0	-0.46984577
31	0x3d332121	0.043732766
32	0xbc71d237	-0.014759592
33	0xbda7556e	-0.08170591
34	0x3e6e1166	0.23248824
35	0x3d98290c	0.07429704
36	0xbe7c8737	-0.24660955
37	0x3eb125ad	0.34599057
38	0x3e6b1b17	0.22959553
39	0xbe947800	-0.28997803
40	0x3e126ac3	0.14298539
41	0x3d48bc5a	0.04900775
42	0x3d4fd4f8	0.050740212
43	0x3d61c290	0.05511719
44	0xbcc4dda8	-0.024031475
45	0xbd628655	-0.05530389
46	0x3e94f6ce	0.29094547
47	0x3dc2a3cd	0.09503899
48	0xbd3e4242	-0.046449907
49	0xbd8f6c58	-0.07003087
50	0x3e11f00c	0.14251727
51	0x3d5d0fa2	0.053969987
52	0xbe3309ec	-0.17484254
53	0xbcd61b72	-0.026136134
54	0x3ce89b0a	0.02839424
55	0xbd5c6d53	-0.053815197
56	0x3e5d3226	0.21601161
57	0x3d69e02a	0.057098545
58	0xbdd96725	-0.106153764
59	0xbdcf8ede	-0.10134672
60	0x3e641928	0.22275221
61	0x3e37590c	0.17905062
62	0x3cba3226	0.02272899
63	0xbe93fcbb	-0.28903756
64	0xbb8bd8e8	-0.0042678006
65	0xbf56bca3	-0.83881587
66	0x3dc768d2	0.0973679
67	0x3ea93bbf	0.33053395
68	0xbc475d34	-0.012168217
69	0xbd9b1cb7	-0.07573836
70	0xbe2c4822	-0.16824391
71	0xbdbeb49f	-0.093117945
72	0x3eb5891d	0.35456172
73	0xbe91de70	-0.2849002
74	0xbd3cb2d2	-0.046068974
75	0xbcec8c50	-0.0288755
76	0x3d141f0c	0.03616242
77	0x3d2a6995	0.041604597
78	0x3ec9900a	0.39367706
79	0x3ddaed3a	0.106897786
80	0xbd694619	-0.056951616
81	0xbd824377	-0.06360524
82	0xbe8c79f4	-0.27436793
83	0xbcacc4d7	-0.021089954
84	0x3e7793d6	0.24177489
85	0x3da1ad36	0.078943655
86	0x3e924ec7	0.28575727
87	0xbbf13a46	-0.007361683
88	0xbe309702	-0.17245105
89	0xbdcd3d92	-0.10021509
90	0xbd82f13d	-0.06393669
91	0xbdf440a4	-0.11926392
92	0xbe1888c7	-0.14895926
93	0x3e8c7d5f	0.274394
94	0xbd287729	-0.041129265
95	0x3c6666d4	0.014062602
96	0xbe942323	-0.28933057
97	0xbd0205fe	-0.031743996
98	0xbd6297b4	-0.055320457
99	0x3cfe486e	0.031040397
100	0x3e7664cc	0.24061888
101	0xbe3d07ff	-0.18460082
102	0xbe829c6b	-0.25509962
103	0x3dae7f78	0.085204065
104	0x3da395bd	0.07987545
105	0x3d898c2c	0.06716189
106	0xbd021333	-0.03175659
107	0xbd070e6c	-0.03297274
108	0xbe06ec6e	-0.13176128
109	0x3d5ac1cd	0.05340748
110	0xbddb8f22	-0.1072066
111	0xbda31289	-0.0796252
112	0x3ddda478	0.108223855
113	0x3d898fb9	0.06716866
114	0xbca237e4	-0.019802041
115	0xbd4af191	-0.049546782
116	0xbe628e5b	-0.22124617
117	0x3db5e233	0.08881035
118	0xbea29ed7	-0.3176181
119	0x3d176259	0.036959026
120	0xbd080361	-0.033206347
121	0xbcfb59d1	-0.030682476
122	0x3d15e7c1	0.03659797
123	0x3cdab952	0.026699696
124	0x3b5d02bf	0.003372356
125	0xbca81d70	-0.02052185
126	0x3e56b807	0.20968638
127	0xbd8f2345	-0.06989149
128	0xbd2e09ea	-0.042489924
129	0xbe41240f	-0.18861412
130	0xbc5f8f96	-0.013645073
131	0xbe8f9aa1	-0.2804766
132	0xbdc6fcce	-0.097161874
133	0x3e6099c5	0.21933658
134	0x3df12199	0.11773986
135	0xbdfca531	-0.12336195
136	0x3e45041b	0.19239847
137	0x3c4a6fe9	0.012355783
138	0xbcb7a802	-0.02241898
139	0x3d4bf59e	0.049794786
140	0xbcbc56de	-0.02299064
141	0xbe05c117	-0.13061939
142	0xbe44a89b	-0.19204943
143	0xbe1845fa	-0.14870444
144	0xbe08d81a	-0.13363686
145	0xbd02a57b	-0.031896096
146	0x3e0a999a	0.13535157
147	0xbcf2dead	-0.029647196
148	0x3da40164	0.08008078
149	0x3e19c982	0.15018275
150	0x3e9e9040	0.3096943
151	0xbe0d9c03	-0.13829045
152	0xbe1e0bde	-0.15434214
153	0x3e3d1e83	0.1846867
154	0x3ec02f48	0.37536073
155	0xbcd0458e	-0.025423791
156	0x3ca411e9	0.020028071
157	0x3dd459ff	0.10368728
158	0xbd184b5a	-0.037181236
159	0x3ea46205	0.32106033
160	0xbe448d56	-0.1919454
161	0x3d155321	0.03645623
162	0xbe94774b	-0.28997263
163	0x3aaaa940	0.0013020411
164	0xbe5af4a1	-0.21382381
165	0xba9017b0	-0.0010993388
166	0x3ec53d50	0.3852334
167	0xbd147a99	-0.03624973
168	0xbdf40d76	-0.1191663
169	0x3df448bb	0.11927935
170	0xbd476523	-0.048680436
171	0x3d999bfe	0.07500456
172	0xbc1eb06b	-0.009685616
173	0xbe059a7e	-0.13047215
174	0xbe163417	-0.14668308
175	0xbd872e90	-0.06600678
176	0x3dcf7fbb	0.101317845
177	0xbcd8f104	-0.026482113
178	0x3d95f7b8	0.07322639
179	0xbdd66458	-0.10468358
180	0xbd7149b5	-0.058908183
181	0xbe9aef7a	-0.3026083
182	0x3df6d9b6	0.12053244
183	0xbe70bae3	-0.23508792
184	0xbd716322	-0.05893243
185	0xbe3b7470	-0.18306136
186	0xbdf7afa4	-0.12094048
187	0xbdb2ae27	-0.08724623
188	0xbbb4e198	-0.005520057
189	0xbce509d7	-0.027958794
190	0x3ca830e4	0.020531125
191	0xbd51db9b	-0.051234823
192	0x3ea0f52c	0.3143705
193	0xbe2b9abd	-0.16758247
194	0x3d30b21b	0.043138605
195	0xbe83ef90	-0.2576871
196	0x3cf7272e	0.03017005
197	0xbf3c1e3b	-0.7348363
198	0x3ec6bc5e	0.38815588
199	0x3e54d306	0.20783624
200	0xbe214b74	-0.1575144
201	0xbe1ad1b3	-0.15119056
202	0x3e5ef847	0.21774398
203	0xbeb0895a	-0.3447979
204	0x3d37eaf1	0.044901792
205	0x3d2f8172	0.042848058
206	0x3c3e37ca	0.011609981
207	0x3e820ea4	0.25401795
208	0x3e3112ac	0.17292279
209	0xbdb5269c	-0.08845255
210	0x3c77d4c1	0.015126408
211	0x3dca9998	0.09892577
212	0xbcbe7043	-0.02324689
213	0x3db760ca	0.08954008
214	0xbd05225b	-0.032503467
215	0x3cb6abbe	0.02229869
216	0xbdf8b24c	-0.121433824
217	0xbd4d7575	-0.050160844
218	0xbd877fce	-0.06616174
219	0xbe1b99c2	-0.15195373
220	0xbabc4e35	-0.0014366569
221	0x3e33a1b9	0.17542161
222	0x3c4ef511	0.012631671
223	0x3e074ceb	0.13212936
224	0xbe7333e9	-0.23750271
225	0x3ec471e2	0.38368136
226	0x3d912d57	0.07088726
227	0x3d18d8f5	0.03731628
228	0xbec2bbc2	-0.38033873
229	0x3ba0e030	0.0049095377
230	0xbe4412a7	-0.1914774
231	0xbe5fe56b	-0.2186486
232	0x3e2647de	0.16238353
233	0x3d402fac	0.046920463
234	0xbd8af999	-0.06785888
235	0x3e57bde8	0.21068537
236	0x3e0abfc2	0.13549712
237	0x3e99a75f	0.30010507
238	0xbcd02183	-0.025406605
239	0xbd9a8184	-0.075442344
240	0x3e40e19a	0.1883606
241	0x3d11ce7b	0.035597306
242	0x3d26e0ba	0.04074166
243	0xbdda95ab	-0.10673078
244	0x3c8104e4	0.015749402
245	0x3e863c17	0.2621772
246	0xbd98c1b5	-0.07458822
247	0x3d6da2e5	0.058016676
248	0x3c573dbe	0.013137279
249	0x3bb05df4	0.005382294
250	0xbecec0d8	-0.40381503
251	0xbd0cbf9c	-0.03436242
252	0x3d0948b6	0.03351661
253	0x3d2e263c	0.042516932
254	0xbe19b454	-0.15010196
255	0x3e2c9ef2	0.16857508

fcs1.bias f4 [512]
0	0xbef77ea0	-0.48338795
1	0xbea748df	-0.32672784
2	0xbef7c51d	-0.48392573
3	0xbd0628ff	-0.03275394
4	0xbec6ad5f	-0.38804147
5	0xbe728919	-0.23685111
6	0xbe647296	-0.22309336
7	0xbeb59685	-0.354664
8	0xbe6a4f43	-0.22881798
9	0xbeaf5fca	-0.3425277
10	0xbe9c0cf7	-0.3047864
11	0xbe84526e	-0.2584414
12	0xbe936c6e	-0.28793663
13	0xbea8d641	-0.32975963
14	0xbef2d62f	-0.47429034
15	0xbd9e1b7b	-0.07720085
16	0xbe19a944	-0.15005976
17	0xbf17c640	-0.5928688
18	0xbee968d5	-0.45587793
19	0xbe85f258	-0.26161456
20	0xbe40708c	-0.18792933
21	0xbe716a5c	-0.23575729
22	0xbe3b85aa	-0.18312708
23	0xbf080bd3	-0.5314304
24	0xbf2a093e	-0.6642035
25	0xbf11e43b	-0.5698888
26	0xbf0473fe	-0.5173949
27	0xbee991d6	-0.45619076
28	0xbece4c48	-0.40292573
29	0xbe66fe0c	-0.22557849
30	0xbd8a6317	-0.06757181
31	0xbeecd130	-0.46253347
32	0xbea25e22	-0.31712443
33	0xbe8f9138	-0.2804048
34	0xbf1f49aa	-0.6222178
35	0xbd9d0057	-0.076660804
36	0xbe6a38ab	-0.2287318
37	0xbe84c54e	-0.25931782
38	0xbee8b599	-0.45451048
39	0xbef47e01	-0.47752383
40	0xbe684cf8	-0.22685611
41	0xbe816178	-0.25269675
42	0xbe0319ec	-0.12802857
43	0xbeac8491	-0.3369489
44	0xbe784b2f	-0.2424743
45	0xbd821a3d	-0.06352661
46	0xbeb3e9f6	-0.35139436
47	0xbe000618	-0.12502325
48	0xbdd3b122	-0.1033652
49	0xbe5d39f9	-0.21604146
50	0xbf031cb5	-0.5121568
51	0x3e3422ae	0.17591354
52	0xbe0cb7bd	-0.13741966
53	0xbda39767	-0.07987862
54	0xbe9733f5	-0.29531828
55	0xbe902350	-0.2815194
56	0x3e66c8bf	0.22537516
57	0x3e27408f	0.16333221
58	0xbe466db5	-0.19377787
59	0xbdab5f53	-0.08367791
60	0xbeecc911	-0.46247151
61	0xbe577ce9	-0.21043743
62	0xbec3c4c3	-0.38236055
63	0xbe5e4cbd	-0.21708961
64	0xbefef1ff	-0.49794003
65	0xbecee10f	-0.4040608
66	0xbf016221	-0.5054036
67	0xbdc19fad	-0.09454284
68	0xbf08551c	-0.53254867
69	0xbebab040	-0.36462593
70	0x3e560137	0.20898901
71	0xbe8e0ef0	-0.2774577
72	0xbe65c63a	-0.22438899
73	0xbec8850a	-0.39164
74	0xbe6278d0	-0.22116399
75	0xbea6a16d	-0.32545033
76	0x3d2093be	0.039203398
77	0xbeebac61	-0.46029952
78	0xbe957f81	-0.2919884
79	0xbeb94c3d	-0.36190978
80	0xbe621095	-0.22076638
81	0xbec2c7c4	-0.38043034
82	0xbec887e7	-0.39166185
83	0xbe9c72a3	-0.3055621
84	0x3ee86e74	0.4539677
85	0xbeb29ad2	-0.34883744
86	0xbea9e200	-0.33180237
87	0xbe68fbdf	-0.22752331
88	0xbe85b610	-0.26115465
89	0xbea17f71	-0.31542543
90	0xbdba3295	-0.09091679
91	0xbe72035a	-0.23634091
92	0xbec6cf8a	-0.38830215
93	0xbeb77a16	-0.35835332
94	0x3e4685dd	0.19387002
95	0xbdc02e99	-0.09383888
96	0xbd81e83f	-0.063431256
97	0xbe837398	-0.2567413
98	0xbe8142da	-0.25246316
99	0xbe414195	-0.18872674
100	0xbea2d67b	-0.3180426
101	0xbc73b43b	-0.014874513
102	0xbec18bc4	-0.37801945
103	0xbda6fdaa	-0.08153851
104	0x3db2fc65	0.08739547
105	0xbeee6324	-0.46560013
106	0xbee52417	-0.44754097
107	0xbd02aee0	-0.031905055
108	0xbd98ab2f	-0.07454526
109	0xbe804743	-0.25054368
110	0xbeeb079c	-0.45904243
111	0xbe8f76ad	-0.2802023
112	0xbea6cee4	-0.3257972
113	0xbe8a293c	-0.26984584
114	0xbe9b18df	-0.30292413
115	0xbec5d1e8	-0.38636708
116	0xbedd72c9	-0.43251637
117	0xbe9a78a4	-0.30170166
118	0xbeaf0ba9	-0.34188583
119	0xbe7d4200	-0.24732208
120	0xbeb9e0da	-0.3630436
121	0xbdfdee9c	-0.12399027
122	0xbeabb16f	-0.3353381
123	0xbdecd2d9	-0.115636535
124	0xbe055d50	-0.13023877
125	0xbf11ea80	-0.56998444
126	0xbe959b52	-0.29220062
127	0xbe42fe0e	-0.19042227
128	0xbe980c26	-0.2969677
129	0xbebac153	-0.3647562
130	0xbe8d2d2f	-0.27573535
131	0xbea98341	-0.3310795
132	0xbf17182f	-0.59021276
133	0xbd89b3f9	-0.0672378
134	0xbed05f1a	-0.40697557
135	0xbe755890	-0.23959565
136	0xbebe36c3	-0.37151155
137	0xbef83318	-0.4847648
138	0xbe6924ba	-0.22767916
139	0xbef9416b	-0.48682722
140	0xbe4326d5	-0.19057782
141	0xbf0a3eff	-0.54002374
142	0xbd18f1cb	-0.037339967
143	0xbe73c735	-0.2380646
144	0xbe5746af	-0.21023057
145	0xbe54535f	-0.20734929
146	0xbf0c11f5	-0.547149
147	0xbe933edf	-0.28758904
148	0xbe40ef03	-0.18841176
149	0xbe9bfa74	-0.30464518
150	0xbefb9fc4	-0.4914533
151	0xbef3e67b	-0.4763678
152	0xbe9d2620	-0.3069315
153	0xbe691a53	-0.22763948
154	0xbe789429	-0.24275269
155	0xbedefbba	-0.43551427
156	0x3ca0bcb6	0.019621234
157	0xbeb89e55	-0.36058298
158	0xbe480dea	-0.19536558
159	0xbe97c40b	-0.29641756
160	0xbec4fd45	-0.3847448
161	0xbdf3d391	-0.119055875
162	0xbf038d80	-0.51387787
163	0xbe7f490c	-0.24930209
164	0xbeafd249	-0.34340122
165	0xbe357ae8	-0.17722666
166	0xbeb5af94	-0.35485518
167	0xbec08715	-0.3760306
168	0xbebc87d8	-0.3682239
169	0xbf0f2266	-0.5591186
170	0xbeeed4c1	-0.46646693
171	0xbe651729	-0.22372116
172	0x3dfc7a7f	0.12328052
173	0xbf00bfe8	-0.50292826
174	0xbefad38d	-0.48989525
175	0xbdff198e	-0.12456046
176	0xbea357db	-0.31902966
177	0xbe69a27e	-0.22815892
178	0xbea4c883	-0.32184228
179	0xbebc86cc	-0.36821592
180	0xbedbcf3b	-0.42931542
181	0xbef26a80	-0.47346878
182	0xbd966143	-0.0734277
183	0xbea34d3a	-0.31894857
184	0xbeb52b05	-0.35384384
185	0xbe453ff6	-0.1926268
186	0xbe688ec9	-0.22710718
187	0xbe11458f	-0.14186691
188	0xbee352c9	-0.44399098
189	0xbeb3bb9b	-0.3510407
190	0xbe904be1	-0.2818289
191	0xbea538d7	-0.32269928
192	0xbee7c447	-0.45266935
193	0xbeda1134	-0.4259125
194	0xbf13b73a	-0.57701457
195	0xbec6e486	-0.38846225
196	0xbe57a530	-0.21059108
197	0xbec658a5	-0.38739505
198	0xbeb6a021	-0.35669044
199	0xbf065fda	-0.5249001
200	0xbea0dbaa	-0.3141759
201	0xbefbbb1a	-0.49166185
202	0xbe8cb5fc	-0.27482593
203	0x3ddb4127	0.10705786
204	0xbe0dd427	-0.13850461
205	0xbe9f933d	-0.3116702
206	0xbea51fdd	-0.32250872
207	0xbec76775	-0.3894612
208	0xbe16bd16	-0.14720568
209	0xbefcafed	-0.4935297
210	0xbe95e85c	-0.2927884
211	0xbf06281b	-0.52404946
212	0xbe9cfb55	-0.306605
213	0xbe99ee9d	-0.3006486
214	0xbee43472	-0.44571263
215	0xbe3b8648	-0.18312943
216	0xbdc1e374	-0.09467211
217	0xbea91833	-0.33026275
218	0xbed03b3c	-0.40670192
219	0xbe8589c5	-0.26081672
220	0xbec5c04d	-0.38623276
221	0xbe6ce0eb	-0.23132674
222	0xbee8c551	-0.4546304
223	0xbed5a02b	-0.4172376
224	0xbec86f22	-0.39147288
225	0xbe0f18cf	-0.13974307
226	0xbea9d5cc	-0.33170927
227	0xbefd3a24	-0.4945842
228	0xbe32760e	-0.17427847
229	0xbf0bbb2a	-0.54582465
230	0x3d1bc873	0.03803296
231	0xbe9eff1a	-0.31054002
232	0xbeedbac8	-0.46431565
233	0xbe981d37	-0.2970979
234	0xbcda85a1	-0.026675047
235	0xbe64bc78	-0.2233752
236	0xbe14b47d	-0.14521976
237	0xbe98e997	-0.29865715
238	0xbe72f3ac	-0.23725766
239	0xbef601e4	-0.48048317
240	0xbec73117	-0.3890464
241	0xbe7c2d26	-0.24626598
242	0xbe49a41b	-0.19691508
243	0xbea44fef	-0.32092234
244	0xbe8ad05a	-0.27112085
245	0xbee34785	-0.44390503
246	0xbee5cb73	-0.44881782
247	0xbecdb4a8	-0.40176892
248	0xbe4389ed	-0.19095583
249	0x3d222a39	0.039591048
250	0xbe716e36	-0.23577198
251	0xbe8ab489	-0.27090862
252	0xbe9a51f4	-0.3014065
253	0xbd76ce88	-0.060255557
254	0xbe2a7a54	-0.16648227
255	0x3dd332a0	0.1031239

fc2.weight f4 [64, 516]
0	0xbd362d5b	-0.044476848
1	0x3d06b5e6	0.032888316
2	0x3dbff776	0.09373371
3	0xbdaecb9b	-0.085349284
4	0xbdafa924	-0.08577183
5	0xbd9cd5a4	-0.07657936
6	0x3d38186a	0.044945158
7	0x3d9130e4	0.07089403
8	0xbc5350e5	-0.012897705
9	0xbddbdec6	-0.1073585
10	0xbecef6c2	-0.40422636
11	0xbc947807	-0.01812364
12	0xbe4d8579	-0.20070447
13	0x3da9a295	0.08282963
14	0xbe1ab3e5	-0.15107687
15	0xbd748423	-0.059696328
16	0x3d96e4dd	0.07367871
17	0xbe36125e	-0.17780444
18	0xbdca4b61	-0.09877659
19	0xbd334e0b	-0.0437756
20	0x3d7506d0	0.05982095
21	0x3da9da9a	0.08293648
22	0xbe21283b	-0.15738003
23	0xbdc00d1c	-0.093775004
24	0xbd44659d	-0.04794847
25	0x3d659ff4	0.056060746
26	0x3d8aba74	0.06773844
27	0x3cd8d4be	0.02646863
28	0xbb8fd9fa	-0.0043899985
29	0x3d3107f0	0.04322046
30	0x3e35d2b4	0.17756158
31	0x3e6099b3	0.21933632
32	0x39e0dac0	0.0004288759
33	0xbd6c96c1	-0.057760958
34	0xbddbc89b	-0.10731622
35	0xbe2b0c98	-0.16704023
36	0xbca53930	-0.02016887
37	0xbe072df7	-0.13201128
38	0xbcae6ede	-0.0212931
39	0x3dac7591	0.084208615
40	0xbd154505	-0.036442775
41	0xbdc96edc	-0.09835598
42	0x3ea2eee8	0.31822896
43	0xbeab9cda	-0.33518106
44	0x3d8fd758	0.070234954
45	0x3d1efe08	0.03881648
46	0x3e8ce021	0.27514747
47	0x3e320578	0.17384899
48	0xbe2b4a63	-0.16727595
49	0x3df92361	0.12164951
50	0x3e7ea432	0.24867323
51	0xbc05a72b	-0.008157532
52	0x3e9dc23c	0.30812252
53	0xbc8f6284	-0.01750303
54	0x3ddc9f5b	0.10772582
55	0x3dae4947	0.0851007
56	0xbd5877a9	-0.05284849
57	0x3dd3f0ef	0.10348689
58	0xbd87755c	-0.066141814
59	0xbd1a267e	-0.037634365
60	0xbe162772	-0.14663485
61	0x3dd4fa88	0.103993475
62	0xbdc45b3a	-0.095877126
63	0x3e1cb923	0.15304999
64	0xbe39724a	-0.18110004
65	0x3e3fd1be	0.18732354
66	0xbd411a5d	-0.047144283
67	0xbe653140	-0.22382069
68	0xbcb78500	-0.022402287
69	0xbe4d2354	-0.20033008
70	0x3d732cae	0.05936878
71	0xbe1bcbfe	-0.15214536
72	0x3e81e8f8	0.25373054
73	0xbcf53c85	-0.029936085
74	0x3e425c8e	0.1898062
75	0xbeee44fa	-0.46537
76	0xbcd5d449	-0.026102202
77	0xbd210f8d	-0.03932147
78	0x3e2f82d1	0.17139746
79	0x3eef15a3	0.46696195
80	0x3c6db3ac	0.014508169
81	0xbdb8611d	-0.09002898
82	0xbe0bb379	-0.13642682
83	0x3e43f28a	0.1913549
84	0x3db4249a	0.08796044
85	0xbf186473	-0.59528273
86	0x3cba0332	0.022706602
87	0xbd75e986	-0.06003716
88	0x3ca39ccd	0.01997223
89	0xbeae60cb	-0.34058222
90	0xbe0073fa	-0.12544242
91	0x3ea08a47	0.31355497
92	0xbe1ab52a	-0.15108171
93	0xbebf14d9	-0.37320593
94	0xbcefecd1	-0.029287728
95	0xbcc93045	-0.02455915
96	0x3d8a9d1c	0.067682475
97	0x3cfab1f3	0.03060243
98	0xbe5b36b9	-0.21407594
99	0xbd8b3672	-0.06797494
100	0x3e03d7bc	0.12875265
101	0xbd85771d	-0.0651686
102	0xbd9199db	-0.07109424
103	0x3dacf93b	0.084459744
104	0x3bb6b253	0.005575457
105	0xbea2696c	-0.31721056
106	0x3d895395	0.06705395
107	0xbd3a9587	-0.045552757
108	0x3d387a3f	0.045038458
109	0xbbd83c28	-0.006598968
110	0xbf0104d9	-0.5039802
111	0x3d4b6fd8	0.04966721
112	0xbe393f61	-0.18090583
113	0xbebf0d34	-0.3731476
114	0x3db8ad8f	0.09017479
115	0xbd5de434	-0.05417271
116	0x3dd3cc55	0.103417076
117	0x3d6f6233	0.05844326
118	0xbe51d255	-0.20490392
119	0x3c0e5290	0.008686677
120	0x3d1607be	0.036628477
121	0xbd050139	-0.03247187
122	0x3de5b811	0.112167485
123	0xbcf766eb	-0.030200442
124	0xbdf0ec79	-0.117638536
125	0x3e837aba	0.2567957
126	0x3e9c408a	0.3051799
127	0x3c04d847	0.008108205
128	0xbd4528eb	-0.048134726
129	0xbb872ad8	-0.0041249804
130	0x3d379026	0.044815205
131	0xbd676878	-0.056496114
132	0x3d265e86	0.04061749
133	0xbe53acdc	-0.2067141
134	0xbe96de20	-0.29466343
135	0x3c3690af	0.011142894
136	0x3e46cbb9	0.19413652
137	0xbd50fe78	-0.05102393
138	0x3cdbc668	0.026828006
139	0xbdd0b5ab	-0.101909004
140	0x3dd8f6d7	0.10593956
141	0xbe6f1a50	-0.23349881
142	0x3d7833a8	0.06059614
143	0x3d121a65	0.035669703
144	0x3e856a3e	0.2605762
145	0xbf203055	-0.6257375
146	0x3c810f1a	0.015754271
147	0xbe06761b	-0.13130991
148	0xbd9b1012	-0.075714245
149	0xbe545012	-0.2073367
150	0x3d688775	0.056769807
151	0xbe7cf0a4	-0.24701172
152	0x3ca18d20	0.019720614
153	0xbe76adc2	-0.24089721
154	0x3cea31ac	0.028588139
155	0x3e1844cb	0.14869992
156	0x3d306f08	0.043074638
157	0x3e2f5b32	0.17124632
158	0x3e77d21d	0.24201246
159	0xb9f52bb3	-0.000467626
160	0xbdc7f43b	-0.0976338
161	0x3daffd9a	0.085932925
162	0x3c11a878	0.008890264
163	0x3e1ccaef	0.15311788
164	0xbdde2550	-0.108469605
165	0x3e216cd8	0.15764177
166	0xbd823740	-0.06358194
167	0xbec9e039	-0.3942888
168	0xbc82e1e0	-0.015976846
169	0xbe1f85a4	-0.15578324
170	0xbe7edf43	-0.24889855
171	0xbdf29b0c	-0.11845979
172	0xbde1dd9c	-0.11028597
173	0x3d5615f3	0.052267026
174	0x3e642b38	0.22282112
175	0x3d831a96	0.06401555
176	0x3d420570	0.047368467
177	0xbb40c441	-0.0029413851
178	0xbe96edcc	-0.294783
179	0x3e797b3b	0.24363415
180	0xbcdd0b0f	-0.026982812
181	0x3e27a284	0.16370589
182	0xbdfd2d26	-0.12362127
183	0xbe7a8ccd	-0.24467774
184	0x3e5fa57f	0.21840475
185	0xbdc12cf5	-0.09432403
186	0xbd9399f6	-0.072071
187	0x3db3d29d	0.08780406
188	0x3e458ae3	0.19291262
189	0x3e5fa00a	0.21838394
190	0xbda0a2d0	-0.07843554
191	0x3e9af44c	0.3026451
192	0x3e3ea866	0.18618926
193	0xbce92634	-0.0284606
194	0xbe925fb6	-0.28588647
195	0xbe6cd550	-0.23128247
196	0xbc9a817c	-0.018860571
197	0x3e1e07b4	0.15432626
198	0x3e0bc844	0.13650614
199	0xbe0d3fd9	-0.13793887
200	0x3dab8fde	0.0837705
201	0x3e5de034	0.21667558
202	0x3e8287fe	0.2549438
203	0x3cbfc815	0.023410836
204	0x3e26fb46	0.1630679
205	0x3d301f77	0.042998757
206	0xbecacdd0	-0.39610147
207	0x3b3ee539	0.0029128327
208	0x3e331109	0.17486967
209	0xbe02fa81	-0.12790872
210	0x3e63966a	0.22225347
211	0x3c8ec699	0.017428683
212	0xbd0db05c	-0.034592018
213	0xbe5da73a	-0.21645823
214	0xbe0a58c9	-0.13510431
215	0x3cd312f5	0.025765875
216	0x3e4c74d4	0.19966441
217	0xbcc83e06	-0.024443638
218	0xbba6cf76	-0.0050906492
219	0x3e1441ae	0.1447818
220	0xbdda7a5a	-0.10667868
221	0xbe21a521	-0.15785648
222	0x3dd70e58	0.10500783
223	0x3e29fe8a	0.16601005
224	0x3d2646ea	0.040594973
225	0x3da5bbd8	0.08092469
226	0x3d788ab5	0.060679156
227	0xbd05502e	-0.03254717
228	0x3df0c6b5	0.1175665
229	0x3da0a84d	0.07844601
230	0xbd7448eb	-0.059639852
231	0xbe8ef7be	-0.27923387
232	0x3d2ab5e6	0.041677378
233	0xbe1cd58b	-0.15315835
234	0xbe05b9d3	-0.13059168
235	0xbe95d4c5	-0.29263893
236	0x3e9ce4ac	0.30643213
237	0x3ccfa60b	0.02534773
238	0x3bd49680	0.0064876676
239	0x3db06558	0.0861308
240	0xbd8db3a1	-0.06919027
241	0x3da466dd	0.08027432
242	0x3e2381f1	0.15967537
243	0xbe645b7e	-0.22300526
244	0xbd5ecede	-0.054396503
245	0x3d4b6122	0.04965318
246	0xbeb734e7	-0.3578255
247	0x3d444379	0.04791591
248	0x3eac01a8	0.33595014
249	0x3e078b44	0.1323672
250	0xbe6941a5	-0.22778948
251	0x3e406a8a	0.18790641
252	0x3d9defe4	0.07711771
253	0xbf15af82	-0.5847093
254	0xbe77cd5a	-0.24199429
255	0xbd41450c	-0.04718499

fc2.bias f4 [64]
0	0x3ebd160c	0.36930883
1	0xbdc9e637	-0.09858363
2	0xbda3443c	-0.07971999
3	0x3ec6ed4a	0.38852912
4	0xbd90b649	-0.07066018
5	0x3efb84fa	0.4912489
6	0xbd767fe3	-0.060180556
7	0x3e974380	0.29543686
8	0xbd894ee5	-0.06704501
9	0xbe18749e	-0.14888236
10	0xbd8c4d9e	-0.06850742
11	0xbd4e437c	-0.050357327
12	0xbdb4095d	-0.087908484
13	0xbd869e69	-0.06573183
14	0xbdb02c3b	-0.08602186
15	0xbe047ed0	-0.12939
16	0x3f033af2	0.5126182
17	0xbdc0c9d4	-0.09413496
18	0x3e24b35e	0.16084048
19	0x3d8521f0	0.06500614
20	0xbbcddc46	-0.006282362
21	0xbd96ef09	-0.07369811
22	0xbdbb1fb3	-0.091369055
23	0xbd818475	-0.06324092
24	0xbddc9ec5	-0.107724704
25	0xba65db87	-0.0008768369
26	0xbd90bc75	-0.07067195
27	0xbdd242eb	-0.1026667
28	0xbd63ad2a	-0.055585064
29	0xbcb22b22	-0.021749083
30	0xbe9a81d8	-0.30177188
31	0xbe007dc3	-0.12547974
32	0xbe628d9f	-0.22124337
33	0x3cad95b6	0.021189552
34	0x3dce3583	0.100688
35	0xbd4e48bf	-0.050362345
36	0xbeafa839	-0.3430803
37	0xbdc6b38f	-0.09702217
38	0x3e05f1b1	0.13080479
39	0xbd382448	-0.044956475
40	0xbdcd7844	-0.100327045
41	0x3e1c1790	0.15243363
42	0xbd6a082c	-0.0571367
43	0x3e65bf0b	0.22436158
44	0x3e808f52	0.25109345
45	0x3e68dd3c	0.22740644
46	0xbdd55495	-0.10416523
47	0xbd92dae2	-0.07170655
48	0x3e510b6d	0.20414515
49	0xbe44c1b9	-0.19214524
50	0xbd5162f6	-0.051119767
51	0xbd900522	-0.07032229
52	0x3e7bf998	0.24606931
53	0x3eb3e2a5	0.35133854
54	0xbeaa10f9	-0.33216074
55	0xbd69b688	-0.05705884
56	0x3df8d0e9	0.121492215
57	0xbdc374c6	-0.09543757
58	0x3ebfaf76	0.37438554
59	0xbd72ecd2	-0.05930788
60	0x3e2c1298	0.16803968
61	0x3ebfd4d6	0.37467068
62	0xbe009b97	-0.12559353
63	0x3e950322	0.29103953

fc3.weight f4 [1, 64]
0	0x3cbb0b44	0.02283252
1	0x3d4c8cf7	0.049939122
2	0xbe114fea	-0.14190641
3	0x3d355dcc	0.044278905
4	0x3c1374b2	0.00899999
5	0x3dd68636	0.104748175
6	0x3c33d2b5	0.010975529
7	0x3c92e2f4	0.017930485
8	0x3c9f1a6d	0.01942178
9	0xbcc2f3ba	-0.023797859
10	0xbbc2a9de	-0.00594066
11	0x3cdc0146	0.026856076
12	0x3bde5f8d	0.006786293
13	0x3c45f8fa	0.012083286
14	0xb9193657	-0.0001461146
15	0xbe0ec9df	-0.13944195
16	0x3dc548d6	0.09633033
17	0x3c8b2a41	0.016987922
18	0x3c4bb92c	0.012434285
19	0x3c08e1f7	0.0083546555
20	0xbb09521f	-0.002095349
21	0xbbf6bb1a	-0.0075296285
22	0xbde795ee	-0.11307894
23	0x3c54ce01	0.012988568
24	0xbd782200	-0.0605793
25	0x3aaa9aad	0.0013016068
26	0xbb35633c	-0.0027677556
27	0x3db59a88	0.08867365
28	0xbc25535a	-0.010090673
29	0x3d598042	0.05310083
30	0xbd1778d6	-0.036980473
31	0xbde8f7e7	-0.113754086
32	0xbd75d377	-0.06001612
33	0x3c485f27	0.012229717
34	0x3c8a9392	0.01691607
35	0x3ced9bb1	0.029004904
36	0xbd398510	-0.045292914
37	0x3aa12770	0.0012295078
38	0x3c9372b3	0.017999029
39	0x3c9ec602	0.019381527
40	0xbda3c638	-0.079967916
41	0x3d2114be	0.039326422
42	0x3c4a2050	0.012336805
43	0x3c8a8893	0.016910827
44	0x3c94b179	0.018151032
45	0x3c856a4f	0.016286043
46	0xbcee606b	-0.02909871
47	0xbe027cd6	-0.12742934
48	0x3cc86a46	0.024464738
49	0xbcfe439a	-0.031038094
50	0x3b30ab00	0.0026957393
51	0x3b927f4b	0.004470741
52	0x3c9feb87	0.019521488
53	0x3c92a217	0.017899556
54	0xbca2eb40	-0.019887567
55	0x3b288b4e	0.0025717798
56	0x3c5d7f80	0.013519168
57	0x3c833279	0.016015278
58	0x3ce4f4da	0.027948786
59	0xbc0ab33e	-0.008465586
60	0x3c35df7e	0.011100648
61	0x3cde7108	0.027153507
62	0xbdc13ef3	-0.09435835
63	0x3d1ea257	0.038729038
